# parameters
nc: 5  # number of classes
depth_multiple: 1.00  # model depth multiple
width_multiple: 1.00  # layer channel multiple

# anchors
anchors:
  - [10,13, 16,30, 33,23]  # P3/8
  - [30,61, 62,45, 59,119]  # P4/16
  - [116,90, 156,198, 373,326]  # P5/32
# YOLOv5 backbone
backbone:
  # [from, number, module, args]
  # Two Stream
  [
    ######### TransformerBlock One #############
    # stream one
    [-1, 1, Stem1, [128]],  # 0-P2/4
    [-1, 3, ResCSPC, [128]], # 1-P2/4
    [-1, 1, Conv, [256, 3, 2]],  # 2-P3/8
    [-1, 4, ResCSPC, [256]], #3--P3/8




    # [-1, 1, Conv, [512, 3, 2]],  # 4-P4/16
    # [-1, 6, ResCSPC, [512]], # 4-P4/16
    # [-1, 1, Conv, [1024, 3, 2]],  # 6-P5/32
    # [-1, 3, ResCSPC, [1024]],  # # 6-P5/32
  


    # [-1, 1, Focus, [64, 3]],    # 0-P1/2
    # [-1, 1, Conv, [128, 3, 2]], # 1-P2/4
    # [-1, 3, BottleneckCSP, [128]],   # 2-P2/4
    # [-1, 1, Conv, [256, 3, 2]],  # 3-P3/8
    # [-1, 9, BottleneckCSP, [256]],   # 4-P3/8
    # stream two

    [-4, 1, Stem2, [128]],  # 4-P2/4
    [-1, 3, ResCSPC, [128]], # 5-P2/4
    [-1, 1, Conv, [256, 3, 2]],  # 6-P3/8
    [-1, 4, ResCSPC, [256]], #7-P3/8

    # [-4, 1, Focus, [64, 3]],    # 0-P1/2
    # [-1, 1, Conv, [128, 3, 2]], # 6-P2/4
    # [-1, 3, BottleneckCSP, [128]],   # 7-P2/4
    # [-1, 1, Conv, [256, 3, 2]],  # 8-P3/8
    # [-1, 9, BottleneckCSP, [256]],   # 9-P3/8

    
    ######### TransformerBlock Two #############
   # transformer fusion
    [[3,7], 1, GPT, [256,4,40,40,6,80]],   # 8-P3/8    [channel , sra  ,h , w, number]  80*80
    [[3,8], 1, Add2, [256,0]],    # 9-P3/8 stream one x+trans[0]
    [[7,8], 1, Add2, [256,1]],    # 10-P3/8 stream two x+trans[1]

    # [[4,9], 1, GPT, [256,3,40,40,2,80]],   # 10-P3/8    [channel , sra  ,h , w, number]  80*80
    # [[4,10], 1, Add2, [256,0]],    # 11-P3/8 stream one x+trans[0]
    # [[9,10], 1, Add2, [256,1]],    # 12-P3/8 stream two x+trans[1]


   ######### TransformerBlock Three #############
   # stream one

    [9, 1, Conv, [512, 3, 2]],  # 11-P4/16
    [-1, 6, ResCSPC, [512]], # 12-P4/16

    # [11, 1, Conv, [512, 3, 2]],   # 13-P4/16
    # [-1, 9, BottleneckCSP, [512]],   # 14-P4/16
   # stream two
    [10, 1, Conv, [512, 3, 2]],  # 13-P4/16
    [-1, 6, ResCSPC, [512]], # 14-P4/16

    # [12, 1, Conv, [512, 3, 2]],   # 15-P4/16
    # [-1, 9, BottleneckCSP, [512]],   # 16-P4/16
   # transformer fusion
    [[12,14], 1, GPT, [512,2,20,20,6,40]],   # 15-P3/8     [channel , sra  ,h , w,number,yuan map] 40*40
    [[12,15], 1, Add2, [512,0]],    # 16-P3/8 stream one x+trans[0]
    [[14,15], 1, Add2, [512,1]],    # 17-P3/8 stream two x+trans[1]


    # [[14,16], 1, GPT, [512,3,30,30,2,40]],   # 17-P3/8     [channel , sra  ,h , w,number,yuan map] 40*40
    # [[14,17], 1, Add2, [512,0]],    # 18-P3/8 stream one x+trans[0]
    # [[16,17], 1, Add2, [512,1]],    # 19-P3/8 stream two x+trans[1]


    ######### TransformerBlock Four #############
    # stream one


    [16, 1, Conv, [1024, 3, 2]],  # 18-P5/32
    [-1, 3, ResCSPC, [1024]],  # # 19-P5/32

    # [18, 1, Conv, [1024, 3, 2]],    # 20-P5/32
    # [-1, 1, SPPF, [1024, 5]],  # 21-P5/32
    # [-1, 3, BottleneckCSP, [1024, False]],   # 22-P5/32
    # stream two
    [17, 1, Conv, [1024, 3, 2]],  # 20-P5/32
    [-1, 3, ResCSPC, [1024]],  # # 21-P5/32

    # [19, 1, Conv, [1024, 3, 2]],    # 23-P5/32
    # [-1, 1, SPPF, [1024, 5]],  # 24-P5/32
    # [-1, 3, BottleneckCSP, [1024, False]],   # 25-P5/32
    [[19,21], 1, GPT, [1024,1,10,10,6,20]],    # 22-P5/32     [channel , sra  ,h , w] 20*20
    [[19,22], 1, Add2, [1024,0]],    # 23-P5/32 stream one x+trans[0]
    [[21,22], 1, Add2, [1024,1]],    # 24-P5/32 stream two x+trans[1]


    ######### Add Block #############
    [[9,10], 1, Add, [1]],   # 25-P3/8 fusion backbone P3
    [[16,17], 1, Add, [1]],   # 26-P4/16 fusion backbone P4
    [[23,24], 1, Add, [1]],   # 27-P5/32 fusion backbone P5

  ]


# YOLOv5 head
head:
  [[-1, 1, SPPCSPC, [512]], # 8      28
   [-1, 1, Conv, [256, 1, 1]], #       29
   [-1, 1, nn.Upsample, [None, 2, 'nearest']], #       30
   [26, 1, Conv, [256, 1, 1]], # route backbone P4 31
   [[-1, -2], 1, Concat, [1]], #       32
   [-1, 2, ResXCSPB, [256]], # 13   33
   [-1, 1, Conv, [128, 1, 1]], #       34
   [-1, 1, nn.Upsample, [None, 2, 'nearest']],   #       35
   [25, 1, Conv, [128, 1, 1]], # route backbone P3  36
   [[-1, -2], 1, Concat, [1]], #       37 
   [-1, 2, ResXCSPB, [128]], # 18   38
   [-1, 1, Conv, [256, 3, 1]],  #       39
   [-2, 1, Conv, [256, 3, 2]], #       40
   [[-1, 33], 1, Concat, [1]],  # cat 41
   [-1, 2, ResXCSPB, [256]], # 22  42
   [-1, 1, Conv, [512, 3, 1]], #       43
   [-2, 1, Conv, [512, 3, 2]], #       44
   [[-1, 28], 1, Concat, [1]],  # cat  45
   [-1, 2, ResXCSPB, [512]], # 26   46
   [-1, 1, Conv, [1024, 3, 1]], #       47

   [[39,43,47], 1, Detect, [nc, anchors]],   # Detect(P3, P4, P5)
  ]
